model/lstm_model.pth (torch, 78073 bytes, 5 tensors)

lstm.weight_ih_l0 f4 [256, 7]
000000 49 96 18 be c4 3e 24 3d 2b 3a 9d 3d 34 6a b9 3d
       -0.14901079 0.04009892 0.0767711 0.0905346
000010 a7 88 ae bd cd a8 89 bd 06 cc 0e be 29 2d 0d be
       -0.08522158 -0.06721649 -0.13945016 -0.13786758
000020 a6 bc a3 3d cc b0 8b 3d f1 56 a3 bd c9 6e b0 bd
       0.07994966 0.06820831 -0.07975567 -0.086148806
000030 5e a1 e5 3d 07 aa ef bc 0f 69 49 3d e9 1a 13 3e
       0.11212419 -0.02925588 0.049172457 0.14365734
000040 14 f9 2e bd 7d 06 88 bb 86 40 da 3d 78 49 c8 3d
       -0.04271801 -0.004151164 0.10656838 0.09779638
000050 22 74 89 3b fa 58 3e 3e 12 55 7e bc 77 b4 67 3d
       0.0041947523 0.1858863 -0.015523212 0.05656859
000060 ae 83 cf bd 7a 58 be bd d1 a1 32 bd 3f 5c fc 3c
       -0.10132538 -0.09294219 -0.04361135 0.030805705
000070 fa 1a 8a 3e ef a3 b2 bd 6b c2 f3 bc 65 aa 02 be
       0.26973706 -0.08722674 -0.029755792 -0.12760313
000080 5e d1 a3 3c d1 80 9e bd fc 04 ce 3d 53 d8 a1 3e
       0.019997295 -0.077394135 0.100595444 0.31610355
000090 89 fc 5f 3d bc 24 a9 3b e3 41 d5 bd d5 86 56 bd
       0.054684196 0.00516185 -0.104129575 -0.05237468
0000a0 56 71 c4 bd 24 cb c0 bd 37 cc 53 3d b8 99 d1 3c
       -0.095919296 -0.09413746 0.051708426 0.025585994
0000b0 04 bc a6 3d ce a6 aa 3d ea c1 c3 3d df 54 93 3d
       0.0814133 0.08332597 0.095584705 0.07193922
0000c0 11 e9 f8 3c 1b 9b 99 3e 5a 6d 90 bd 02 f1 db 3c
       0.030384572 0.3000115 -0.07052107 0.02684832
0000d0 bb 5a 78 bd f4 ab 2b bc c5 4c a7 bd fb 9f 08 3d
       -0.060633402 -0.010478009 -0.081689395 0.033355694
0000e0 74 c4 bb bd 06 26 04 be d1 b5 8c bd 1d d8 24 be
       -0.0916833 -0.1290513 -0.06870616 -0.16098066
0000f0 58 93 93 bd 8d 04 32 be 0f 0f 5a 3d cb ec 28 3e
       -0.07205838 -0.17384548 0.053237017 0.1649658
000100 18 0d de 3d 3a 97 1c bc 54 91 97 ba 65 7e dc 3d
       0.10842341 -0.00955754 -0.0011563697 0.10766295
000110 eb 55 ac bd 50 82 80 3d 82 44 44 3d 20 7e 0a bd
       -0.08414825 0.06274855 0.047916897 -0.03381169
000120 9d a2 51 bd f2 57 32 3d 38 40 de 3c b1 82 d5 3d
       -0.05118047 0.043540902 0.027130231 0.10425318
000130 88 87 11 3d d9 60 e2 3d ec f0 26 3e af 6b 87 3d
       0.035529643 0.110536285 0.16302842 0.06612336
000140 79 e8 7d 3d 49 66 08 3e 96 82 c8 bd d3 e0 a9 3d
       0.06198928 0.13320269 -0.09790532 0.08294835
000150 c2 58 39 3e 80 24 36 3d bb d1 da bd 4d e9 0e 3d
       0.18100265 0.044468403 -0.10684534 0.03489046
000160 59 9e 24 3c 5e ee ae 3c 35 36 a5 3c f5 6e 1c 3e
       0.010047519 0.021353897 0.02016745 0.15276702
000170 4c 3e d4 bd 17 aa 46 bc 73 6e 67 bc 82 39 87 bd
       -0.10363445 -0.0121255135 -0.014125454 -0.066027656
000180 a5 6c b7 bc 38 01 1a 3d 19 92 0d 3e 7a 2c c1 3d
       -0.022390673 0.03759882 0.13825263 0.09432311
000190 60 d3 f9 3d 16 73 88 bd ab 43 0d bd d2 96 14 bd
       0.1219852 -0.06662576 -0.03448836 -0.036276646
0001a0 9f 05 f1 bd 37 33 93 be 28 fe a0 3c 51 a8 fd 3c
       -0.1176865 -0.2875001 0.019652441 0.030964049
0001b0 b0 02 03 be 77 ea 9f bc 63 eb 95 3d f9 04 fa 3d
       -0.12793994 -0.019520981 0.07320287 0.1220798
0001c0 9f 05 41 3e 8a 49 4b bd 52 09 aa bd 45 a4 9e 3d
       0.188498 -0.04963068 -0.08302559 0.07746176
0001d0 94 aa 12 3d 4e 45 d1 3d dc 51 99 bd b3 29 f4 3c
       0.035807207 0.10218297 -0.074863166 0.02980504
0001e0 5f ae 12 be 36 25 7b bc cd 6d b3 bd a0 98 1c be
       -0.1432433 -0.015328696 -0.08761177 -0.15292597
0001f0 0a 3a 76 bb 95 76 c9 bd e9 51 ab bc fb 48 dd bc
       -0.0037571215 -0.09837071 -0.020913081 -0.027012339
000200 03 dc 98 3d 2e c5 fa bd fc ab 40 3c 11 e5 30 3d
       0.07463839 -0.1224464 0.011759754 0.043187205
000210 57 66 c8 3d ba c6 c8 3c 65 8a f3 3d 79 ba 10 3c
       0.09785145 0.024508823 0.11891631 0.008833521
000220 54 ee 4b bd c0 92 0c 3d 9b b3 e0 3c 90 03 ac bd
       -0.049787834 0.03431964 0.027429393 -0.08399117
000230 16 49 48 be 41 42 0f be 06 33 57 3d e6 02 56 bd
       -0.1955913 -0.13990118 0.052538894 -0.052248858
000240 f5 2a 13 be 08 71 ab 3c b6 ea f9 bd e3 1d 4f bd
       -0.14371856 0.020927921 -0.12202971 -0.05056561
000250 8f 7e 58 bd 8f 58 d1 3c 69 4f 9b bb af 4e b1 bd
       -0.05285507 0.025554923 -0.004739691 -0.08657586
000260 ba d1 29 bd f5 b6 d6 bd a3 02 42 3d df 5e 44 3d
       -0.041459776 -0.10484115 0.047365796 0.04794204
000270 12 2d 68 bd b7 85 dd bd cb d1 24 3d 2e bc dc bd
       -0.056683607 -0.1081652 0.040239137 -0.1077808
000280 63 aa 72 3d fc 19 08 3e ef 0a 90 bd d1 ce f6 bb
       0.059244525 0.13291162 -0.070333354 -0.0075319787
000290 69 01 75 3d 50 a7 5e bc b8 b3 88 3d 89 23 5b 3c
       0.059815798 -0.013589695 0.06674904 0.013375171
0002a0 a4 6b b7 3d a8 3c bc 3c 96 13 35 3c 06 44 09 be
       0.08956078 0.022978142 0.011052033 -0.13404855
0002b0 b5 85 0b bd d2 75 a8 bd b6 d5 9e bd da 36 5b 3e
       -0.03406306 -0.082255974 -0.07755606 0.21407643
0002c0 82 36 ce 3a ce dd 3b bd 21 bc b9 bd dc 69 96 3d
       0.0015732797 -0.045865826 -0.09069086 0.0734441
0002d0 d1 51 e0 bc e8 4e 9b bd 4b db e1 3d eb 34 c2 bd
       -0.027382763 -0.075834095 0.11028155 -0.094827496
0002e0 5d f5 02 3a a1 02 0b be d4 e1 8a bd 29 bb 65 3e
       0.00049956684 -0.13575222 -0.067813545 0.22434677
0002f0 c4 ad 87 bc 82 c8 3d 3e fe fc 02 3d 9e 88 92 bd
       -0.01656235 0.18533519 0.031979553 -0.07154964
000300 54 99 c1 bd fa 31 99 bd 69 8a 6a bd 87 0b 6d 3d
       -0.09453073 -0.074802354 -0.057260904 0.05787232
000310 4e 56 25 3c 2b 45 a6 bb 7f 5a 01 bd 70 46 21 3d
       0.010091377 -0.0050741634 -0.031580444 0.039373815
000320 44 cb 25 be 7a 6a b2 3d 8b 27 76 3d a3 23 23 3e
       -0.16190821 0.08711715 0.060096305 0.15931563
000330 2f 0e 80 3e d2 ca 4e 3e 8a 69 fc 3d d8 76 7c 3c
       0.2501082 0.20194557 0.123248175 0.015409194
000340 05 19 27 bd ba 14 18 3e 68 5c 2f be 0f d4 e4 3d
       -0.040795345 0.14851657 -0.17125094 0.111732595
000350 41 2c 38 bc 04 44 53 3d ab af cf bd 5b f6 1e 3d
       -0.01124102 0.051578537 -0.10140928 0.03880916
000360 0d 42 24 bd 77 f6 1d 3c 70 b2 48 bd 36 4a c3 3c
       -0.040102053 0.009641281 -0.048998296 0.023839097
000370 0d cb 5a bd f6 59 15 3d db fb c5 3c ed c6 f3 bb
       -0.0534163 0.036462747 0.024167946 -0.0074394853
000380 d7 ad 15 3e 1a f3 9b 3b 6f a2 03 be 53 06 e8 bd
       0.14617096 0.0047592046 -0.12854932 -0.11329331
000390 90 97 14 be c3 f6 ae 3d 00 cd 8e 3d 43 5f 7d 3e
       -0.14510942 0.0854316 0.069726944 0.2474337
0003a0 8f 82 06 3e 3e e0 a8 3d 9a 7c 18 3e a8 01 06 3c
       0.13135742 0.08245896 0.14891282 0.008179106
0003b0 6b 20 1a bd a5 98 86 bd 7c 82 b2 3d 63 a6 8d 3c
       -0.037628572 -0.065720834 0.08716294 0.017291253
0003c0 03 7b 41 bd 2d 95 9f bd 5a 17 65 bd 16 e2 74 3c
       -0.047236454 -0.07792125 -0.055930473 0.014946481
0003d0 6d 07 d9 3c ab df b2 bd e5 f4 57 bd 28 22 40 bc
       0.026492799 -0.087340675 -0.052723784 -0.0117268935
0003e0 a6 96 8a bd 19 70 bc 3d 4c 67 95 3d 63 da 81 3d
       -0.06767015 0.092010684 0.07295093 0.06340482
0003f0 63 6f 69 3e 40 77 3d bd 31 a3 5d 3d cd 32 d3 3d
       0.22796397 -0.046256304 0.05411071 0.10312424

lstm.weight_hh_l0 f4 [256, 64]
000000 83 16 9a bd 86 e8 c8 3d 80 30 d3 3d 86 74 9e 3d
       -0.07523825 0.09809975 0.10311985 0.07737069
000010 d9 5f 73 3d 3f 9e 60 3d 4e ea b7 3b f7 ed ac bd
       0.05941758 0.054838415 0.005612648 -0.08443826
000020 df 2a 62 bd 92 7f 90 3c 1f 26 0b 3e eb 78 53 bd
       -0.055216666 0.017638955 0.13588761 -0.05162899
000030 b4 8f ca bd 6b 3c 66 bd fa 33 d9 bd 7e 5d 0e 3d
       -0.098906904 -0.056209963 -0.10605617 0.03475713
000040 aa f9 c3 3b ed fe 89 bd 3e 04 3f bd d7 c0 c2 3d
       0.00598069 -0.06738076 -0.046634905 0.095094375
000050 96 03 92 bd ab e2 80 3d 5e 06 bf 3d 07 b8 f5 3d
       -0.0712959 0.062932335 0.09327386 0.11997991
000060 79 d0 63 bd 5e 15 b2 3d 6c f7 83 3d 90 78 70 3d
       -0.055618737 0.08695482 0.06443676 0.058708727
000070 26 bb b9 bd 39 6a 94 3c 40 9d 27 3d 5b c9 60 bd
       -0.09068899 0.018117057 0.04092145 -0.054879528
000080 4b 70 b7 3d cb fd 55 3d e0 6a 8e 3c 9b d5 da 3d
       0.08956965 0.05224399 0.017384946 0.10685273
000090 99 a8 df 3d b9 9b fe bd 35 2a 7a 3d 14 cc 21 3a
       0.10920829 -0.124320455 0.061075408 0.00061720726
0000a0 ce 15 c3 bd 22 20 7e 3d cc f1 05 be c0 1a 48 bd
       -0.09525643 0.062042363 -0.1308052 -0.048853636
0000b0 5b 48 a0 3d 83 78 e2 3d 09 c7 c2 bd 9d c6 42 3d
       0.07826301 0.11058142 -0.09510619 0.047552694
0000c0 4f 23 41 bd cd 3f f1 bd d7 c3 95 3d 0b 3b 4e 3d
       -0.047152814 -0.11779747 0.07312744 0.050349277
0000d0 4d f6 e7 3c 92 73 5a bd bc fe bc 3d 80 99 df bc
       0.028315688 -0.053332873 0.09228274 -0.027294874
0000e0 6f 21 90 3d ad 71 bd 3d ff 5f cd 3d 5c ba 3a bd
       0.07037627 0.092501976 0.100280754 -0.045587882
0000f0 ce 8a 94 3d 20 71 93 bc 80 30 8a bc 17 c4 07 bd
       0.072530374 -0.017998278 -0.01686883 -0.03314599
000100 dc e9 d3 bd 2b b0 e3 3b e5 0e 18 be c5 27 dc 3d
       -0.103473395 0.006948491 -0.14849432 0.10749773
000110 a7 e0 0c be f1 56 78 bd 11 aa 07 3e ae dd 3f 3d
       -0.13757573 -0.06062979 0.13248469 0.04684227
000120 3d 8a e4 bb e3 5e 4d bd 84 31 ba bd 27 e7 85 3d
       -0.006974487 -0.05013932 -0.090914756 0.065382294
000130 65 66 4f 3d 99 99 ec bd e1 21 17 3e 4b f1 c8 3d
       0.05063476 -0.11552734 0.14759018 0.09811648
000140 ed f5 03 be 63 10 0a be 9a 41 9b 3d b3 d7 5d 3d
       -0.12886782 -0.13482814 0.07580872 0.054160785
000150 f3 9b f9 3c 60 49 b1 3c ca ce 6a bd 4f 3d f2 3d
       0.03046987 0.021641433 -0.057326116 0.118281
000160 77 23 61 3c 5e 9a a1 bc 12 1c 03 be e5 0d ee bd
       0.013741366 -0.019726928 -0.12803677 -0.11623744
000170 f1 21 bf bd 56 df 2d be e1 34 f2 3d 29 1f 8d be
       -0.09332646 -0.16979727 0.11826492 -0.27562836
000180 fa 4f 04 bd 57 e2 be 3d 1a 6a e5 bc 7f ac a5 bd
       -0.032302834 0.09320515 -0.028004695 -0.08089542
000190 e3 c2 3e bd e2 a6 b9 3b 60 06 f6 3c 3c 47 e9 bd
       -0.046572577 0.005665646 0.030032337 -0.1139054
0001a0 aa 58 37 3d 9e fd be 3d b4 15 87 3c 3c 13 52 bd
       0.04476229 0.093257174 0.016489841 -0.051287875
0001b0 9e 88 a2 3d 0e da b4 bd 5f 69 c2 bd aa 12 12 3e
       0.07936214 -0.08830653 -0.09492754 0.14264932
0001c0 29 4f 17 bd 34 1b 9c 3c fa 1f 8e bd 83 98 17 ba
       -0.036940727 0.01905594 -0.06939693 -0.0005782919
0001d0 55 e9 a2 3c 8c 50 1e bc 34 ad cc bd 22 b8 5f be
       0.019886652 -0.009662759 -0.099939734 -0.21847585
0001e0 29 64 d4 3d 50 2c 32 bc cf b1 44 be 3d 9e aa 3d
       0.103706665 -0.010874823 -0.19208454 0.08330963
0001f0 51 24 79 3d 93 a7 03 3e 57 a9 0a be 0a 57 4c bc
       0.06082565 0.12856893 -0.1354116 -0.012471924
000200 16 f1 88 3d 60 fe f7 3d 3c b5 b3 bd 49 d6 18 be
       0.066866085 0.12109065 -0.08774802 -0.14925493
000210 ed 88 78 bd ab dc d0 bd e2 b7 dc 3c 9e d9 e5 3d
       -0.060677458 -0.10198339 0.02694315 0.11223148
000220 37 f1 a0 3d 00 dc de 3d 32 a9 d3 bd f5 5d 28 bc
       0.07858508 0.108818054 -0.10335006 -0.010276307
000230 87 a5 be 3d 38 7f 1c 3c c3 f2 8f 3d 5b 81 6c be
       0.093089156 0.009551816 0.07028725 -0.2309622
000240 ab 83 1e bd cb c5 27 bd f6 76 3c 3c 52 89 9e 3d
       -0.038699787 -0.040960114 0.011502972 0.077410355
000250 a0 ea 01 3d 29 75 87 3d 52 91 c4 3d 60 2b 48 bd
       0.031717896 0.066141434 0.0959803 -0.04886949
000260 c0 83 c6 bd e6 54 e7 3d 11 c8 6d 3c ca 10 03 3e
       -0.09693098 0.1129549 0.014513032 0.12799373
000270 44 a8 2b 3d 27 46 be bc 44 45 f6 bb 34 99 15 bd
       0.041908517 -0.02322681 -0.0075155813 -0.03652306
000280 fb ba b1 3d 58 65 6e bb 5d 6b d9 bc 47 50 02 3e
       0.08678242 -0.0036376324 -0.026540453 0.12725936
000290 5f df b5 bd ae af 29 3e 2c e6 ee bb d0 42 ad bd
       -0.08880495 0.16570923 -0.007290622 -0.08460009
0002a0 b5 8a ee bd 9e 06 1f 3b 30 72 8c bc da 59 7a bd
       -0.1164755 0.0024265419 -0.017144293 -0.061120845
0002b0 42 44 be 3d d2 67 98 bd 43 25 79 3b 8d fa 1f bd
       0.09290363 -0.07441677 0.0038016594 -0.039057303
0002c0 3c ad 70 3d 4a d3 85 3d 78 56 7e 3d c9 48 bc 3c
       0.05875896 0.06534441 0.06209418 0.022983925
0002d0 1b 50 3d bd 88 58 77 3d 41 42 dc 3d 16 e2 a6 3d
       -0.046218973 0.060387164 0.107548244 0.08148591
0002e0 7d 77 97 bd c1 20 a6 3d a0 3e ba bd 68 c9 c0 bd
       -0.073958375 0.08111716 -0.09093976 -0.09413415
0002f0 e5 6d c6 bd 0c b8 6d 3d d0 3c 19 bd 64 ed 6c be
       -0.096889295 0.05803685 -0.03741151 -0.23137432
000300 58 9d dc 3d 29 7b 04 be 62 b5 a9 3d 43 27 8c bd
       0.107721984 -0.12937607 0.08286549 -0.06843426
000310 7d d9 d9 3c f9 b6 99 bc 0f a0 f8 bd 86 bc 0a 3e
       0.026592964 -0.018764006 -0.12139904 0.13548478
000320 46 4f 09 3c 09 6f ad 3c a3 28 c0 3d 66 97 42 bd
       0.008380717 0.02117111 0.09382751 -0.047507666
000330 8f 67 36 bd b4 10 73 3d 0d a5 f3 3c 86 4c 20 bd
       -0.044532355 0.0593421 0.029741788 -0.03913548
000340 58 80 da bd 66 80 0f bd 4f e6 91 3c 16 ff 0d bd
       -0.10669011 -0.03503456 0.017810015 -0.034667097
000350 26 84 e2 bd 37 0c 98 3c f2 c4 ef 3d d3 0d c3 3c
       -0.110603616 0.018560512 0.11707486 0.023810303
000360 36 ad 3f bc a6 ae af bd ba 3d c5 3d fb a0 c9 3c
       -0.011699012 -0.085782334 0.09630914 0.024612894
000370 f0 4e 00 be 64 ff 14 bc 4a b6 03 be 0b 57 c6 bd
       -0.12530112 -0.009094093 -0.12862507 -0.09684571
000380 fc 99 00 3e 2e a3 b0 3d be 64 b3 bd fb a2 5e 3b
       0.1255874 0.08624874 -0.087594494 0.0033971656
000390 cd af 66 bd 77 89 4c bd 80 d8 85 3d 4a 2d e0 3d
       -0.05632 -0.049935784 0.06535435 0.10946138
0003a0 c9 8b 12 bd 76 34 dc 3d cc a8 37 3c 67 64 9c 3d
       -0.03577784 0.10752194 0.011209678 0.07636338
0003b0 c9 f0 f5 3d a3 b7 14 bc b5 c1 53 3d 39 03 4c 3d
       0.12008817 -0.0090769855 0.051698405 0.04980776
0003c0 f2 85 20 3e f4 0b 62 bc 58 89 85 bd 1d b7 0b be
       0.15676096 -0.013796795 -0.06520337 -0.13644071
0003d0 ad 55 17 bd 1e 2d a2 3d b1 7d e4 bd bd d6 e7 bd
       -0.03694694 0.07918762 -0.11156786 -0.11320255
0003e0 3d 06 9b 3d 65 13 e4 bd d1 99 6c bd 9f b5 99 bd
       0.07569549 -0.11136512 -0.05776388 -0.075053446
0003f0 55 e2 c8 3c 08 ca 5a bd bd 97 44 3d 23 52 2a be
       0.024521986 -0.05341533 0.04799627 -0.16632895

lstm.bias_ih_l0 f4 [256]
000000 1d 65 13 3b e6 58 3c bd 6d ad e3 bc 95 47 a2 bd
       0.0022490688 -0.045983218 -0.027792657 -0.079238094
000010 da 03 11 bd 3f 60 ed 3c de 7d 80 bd 53 84 01 bb
       -0.035404064 0.028976558 -0.06274007 -0.001976271
000020 ee e1 ed 3d 96 8c 04 3e da 2b 5a 3d 08 fe cc 3d
       0.11615358 0.12944254 0.053264476 0.1000939
000030 6c 15 ca bd 7c 7f 79 3b dc d2 a7 bd 86 c8 9f 3d
       -0.09867367 0.0038070371 -0.08194515 0.07801919
000040 5a 75 04 3e 17 2c 9d bd a8 0f 9b 3d de 09 a6 3c
       0.12935391 -0.07674425 0.075713456 0.020268377
000050 59 b1 92 bd 6d 10 a7 3b fb 06 78 bd 38 e8 e8 bd
       -0.07162733 0.0050983937 -0.060553532 -0.11372417
000060 49 e5 71 bd 1c c9 f9 3d 3c eb 02 3d 58 23 09 be
       -0.059056554 0.12196562 0.03196262 -0.13392389
000070 46 ce f2 bd ac 6d 1a bd a3 34 73 bd 01 fd fc 3c
       -0.1185575 -0.037702248 -0.05937637 0.03088236
000080 e3 57 9b 3c 3e f5 b1 bb f2 c4 8c 3d 0c a9 97 bd
       0.018962806 -0.0054308465 0.06873502 -0.0740529
000090 df 0a e2 3d c1 6f 1a 3e 1d 3a de 3d 15 04 17 3d
       0.1103723 0.15081693 0.10850928 0.036869127
0000a0 fe cc f2 bd fa ef 30 bd 0d 63 5f 3d c0 a3 bd bd
       -0.118555054 -0.04319761 0.05453782 -0.092597485
0000b0 bc 88 d8 3d 4b ac 9b 3d 0d 2b df 3d d8 2b d6 3d
       0.10572955 0.07601222 0.10896883 0.10457581
0000c0 2b 14 7d bd 32 ca aa 3d 7f fe e9 3d 2a 36 2a bb
       -0.06178681 0.08339347 0.114254944 -0.0025972226
0000d0 ad 66 b3 bd 21 08 9f 3d d3 90 9e 3d c0 c2 aa 3b
       -0.08759818 0.07765222 0.07742467 0.0052112043
0000e0 ee da 8c bc 30 3d 8f bd eb c2 fa 3d 09 4a 06 3d
       -0.017194238 -0.069940925 0.12244209 0.03278545
0000f0 6b a9 a9 3c 31 e9 dc 3d d5 da 19 3c 9c 23 a6 3e
       0.020710668 0.10786665 0.0093905525 0.32449043
000100 ce 91 ee bd 7a 26 90 bd 82 34 4f bd 1a 77 44 3d
       -0.11648904 -0.07038589 -0.050587185 0.047965147
000110 e9 3a 0d bc e2 f3 d6 3d ba 20 0d 3d ff e5 49 bd
       -0.008620002 0.10495736 0.03445504 -0.049291607
000120 26 52 a2 3d 99 58 7c bc d1 ba bb bd 72 6f d7 bd
       0.07925825 -0.015401983 -0.09166492 -0.105193034
000130 33 3b 94 3c 76 a6 f5 3d 3d e3 d8 3d 5b b9 4e 3d
       0.018094635 0.119946405 0.10590217 0.050469737
000140 df c1 b7 3d b8 f9 c6 bd 86 b6 c8 3d a4 5e ba 3b
       0.08972525 -0.09715599 0.098004386 0.0056875516
000150 87 6c 05 be b2 31 17 bd 32 c2 f3 bd ce 42 33 3d
       -0.13029681 -0.036912628 -0.11902274 0.04376488
000160 a5 ec a7 3c 31 95 31 3c 72 e2 ca 3d ed 7d a5 bd
       0.020498583 0.010838793 0.09906472 -0.08080659
000170 19 7d a8 3c f6 24 ee 3d 65 b7 82 3d 7f 04 c7 3c
       0.020567464 0.116281435 0.06382636 0.024294136
000180 a0 66 cf 3d 6a 2d 27 3d 90 b6 57 bd 00 ef e4 bc
       0.10126996 0.040814795 -0.05266434 -0.027945995
000190 76 ef 12 bd 70 89 49 be ed 83 42 3d f7 46 9d bd
       -0.0358729 -0.19681334 0.047489095 -0.07679551
0001a0 80 87 b8 bd 93 79 79 3d 7c 82 8c 3d 37 c5 9e 3d
       -0.090102196 0.060906958 0.068608254 0.077524595
0001b0 5a 87 52 be a1 f8 24 bd 11 89 cf 3d 27 bf 8f 3d
       -0.20559445 -0.040276174 0.10133565 0.07018881
0001c0 16 53 d8 3a 18 46 78 3c 5c 06 15 3b 03 a7 9d 3d
       0.0016504254 0.01515343 0.0022739386 0.076978706
0001d0 44 79 07 be 3a 49 ac 3d 6c cf cf 3d 98 49 c7 3c
       -0.13229853 0.08412404 0.101469845 0.024327084
0001e0 4d 31 b5 bd b3 a7 be bd d6 ba cc 3d 8d 69 1f 3d
       -0.08847294 -0.0930933 0.099965736 0.03891902
0001f0 f0 84 26 3d b2 d9 b2 3d 82 14 d3 bd ce 19 b7 bd
       0.040654123 0.08732928 -0.10306646 -0.08940469
000200 bf a5 53 bd a5 6c da bd 77 7c f4 3b 67 33 01 be
       -0.05167174 -0.106652535 0.0074611264 -0.12617265
000210 39 f3 ca bd 5a 0c a7 3d 7b 9d e0 bd 4e 3c 34 bc
       -0.09909672 0.08156653 -0.10967537 -0.011000706
000220 2e 42 c1 bc 5e 98 5e bd 2e 03 85 bd 10 d6 ee bd
       -0.023591127 -0.054344527 -0.06494747 -0.11661923
000230 59 27 49 bd a8 32 b7 bd c5 c2 a0 bc c9 d2 d0 bd
       -0.04910979 -0.08945209 -0.019624123 -0.10196454
000240 f6 46 a1 bd 68 19 30 3c b0 fa 4d bd c3 62 7b 3c
       -0.07874863 0.010748245 -0.050287902 0.015343371
000250 2e 0c 24 bd 88 25 98 3d 34 16 3c 3d c7 3b a6 3c
       -0.040050678 0.074290335 0.045919612 0.020292176
000260 3a 8d f9 3c be f3 16 3c ae 59 a5 bd b6 db ac bd
       0.03046285 0.009213386 -0.08073746 -0.08440344
000270 24 1f 91 3d ca 6e c3 bd 20 4d d1 3d 04 95 f6 bd
       0.07086018 -0.09542616 0.102197886 -0.12040141
000280 2e cc d0 3d 15 62 00 3e 21 77 a8 3d 58 49 35 3d
       0.10195194 0.12537415 0.08225847 0.0442594
000290 5e 08 02 be e2 84 a4 3d 5b f3 9d 3d 7d 84 95 bb
       -0.12698504 0.08033158 0.07712432 -0.004562913
0002a0 95 fe d5 bc 94 37 ba bb 40 46 95 bd 6f 9e 98 3d
       -0.02612237 -0.005682895 -0.0728879 0.07452094
0002b0 5c d3 ee ba 2c e8 ba bd c7 fe 80 bc 05 3a ba 3d
       -0.0018220949 -0.091263145 -0.015746487 0.090930976
0002c0 fd 09 d7 3c df fa 25 bd 9a e0 60 3d f2 55 e2 3d
       0.02624988 -0.040522452 0.054901697 0.11051549
0002d0 51 75 cd 3d e9 e1 aa 3d b1 49 29 bd bb 48 b9 3d
       0.10032142 0.0834387 -0.041330043 0.09047075
0002e0 90 6a 49 3c 4d 6f b9 bd 9c ae d0 bd 75 02 90 bb
       0.012293473 -0.09054432 -0.10189554 -0.004394824
0002f0 38 fe 3d bc 66 07 ac 3c 3a 3e 51 3d ff aa 45 3d
       -0.011596255 0.020999622 0.051084734 0.048258778
000300 73 7d 97 3d 51 39 c5 3d 73 dd d8 bd 7f 1e 76 3d
       0.073969744 0.09630073 -0.10589113 0.060087677
000310 29 27 e8 3d f8 e1 14 bd 1a b4 9d 3d 5f 95 03 bd
       0.11335594 -0.036348313 0.07700367 -0.032124873
000320 af 1f 83 3d 5a 27 98 bb b7 93 cc bd 90 b4 f0 3d
       0.064025275 -0.004643363 -0.09989112 0.117531896
000330 bc 3f 05 3e 50 e7 1a bd 61 2c 2e bd 2d e7 35 bd
       0.13012594 -0.037818253 -0.04252279 -0.04440992
000340 76 de 55 3d f6 d9 ec bd e9 70 1c 3b 7e fb 01 be
       0.05221411 -0.1156501 0.002387101 -0.12693593
000350 60 28 8a bd 58 21 ea bd c5 e1 c0 bc 69 15 97 3b
       -0.06745982 -0.11432141 -0.023545155 0.0046107066
000360 fa 68 08 3c 9b e0 86 3d c3 5d 97 3d e9 cd 94 3d
       0.00832581 0.06585809 0.073909305 0.07265837
000370 0b 4c a6 bd b2 c4 86 39 b7 e0 8b 3d e7 2b 28 3e
       -0.08119973 0.0002570502 0.0682997 0.16422997
000380 8f 8d 5d bd 93 d9 06 bd fe f6 4b 3e 41 de 1c bc
       -0.05409008 -0.03292234 0.19918439 -0.009574474
000390 0e 11 b1 3d ed a1 15 3e ea d1 1f 3d 85 5d 51 bd
       0.08645831 0.14612551 0.03901855 -0.051114578
0003a0 67 42 88 bd 6f 00 8c bd e8 4b a5 3d 64 5e 04 3b
       -0.0665329 -0.0683602 0.080711186 0.0020197863
0003b0 aa 68 8b 3e 24 8b 25 bb e2 24 90 3d df 55 f9 bc
       0.2722829 -0.0025259936 0.07038285 -0.030436454
0003c0 c4 24 16 3e 2f 0f 8e bd 78 c2 c9 3d f5 04 01 3c
       0.14662462 -0.0693649 0.09851545 0.007874717
0003d0 0b ab a9 bd 5d 2f aa bd 41 e0 f6 3d 2a d2 69 3d
       -0.08284577 -0.08309815 0.12054492 0.057085194
0003e0 81 98 90 3c 79 8a db bd 1a be 1b bd b0 3c f3 3d
       0.017650845 -0.10719771 -0.03802309 0.118768096
0003f0 0c eb cf 3d 4b 22 1c bd 12 3a c6 3d 80 2f f8 3d
       0.101522535 -0.03811864 0.09679045 0.12118435

lstm.bias_hh_l0 f4 [256]
000000 33 7e 3d bd 36 7b 47 3d d9 bf 2d bd ed 11 f9 3d
       -0.04626293 0.048701487 -0.04241929 0.12161622
000010 75 fc a5 bd fd 4d 28 bd f7 05 ea 38 37 52 e7 3d
       -0.08104793 -0.04109 0.000111591005 0.11294978
000020 3e a3 df bc 70 d0 10 bc 7c 40 a7 3a 34 5c b3 bd
       -0.02729952 -0.008838758 0.0012760307 -0.08757821
000030 88 f7 9a 3d d3 69 5a bc d2 ac 15 3e 5c 1a fc 3d
       0.07566744 -0.0133308945 0.14616707 0.12309715
000040 62 b0 3b bd a0 bf 48 bc 72 9a c1 bd 5a 0d 06 be
       -0.04582251 -0.012252718 -0.09453286 -0.1309103
000050 cf 6e c2 bc 31 7d a9 3c da d4 f0 bc cd 43 ed 3d
       -0.023734478 0.020689579 -0.02939837 0.115851976
000060 42 78 4e 3c c7 50 1e 3d 07 af 70 3d 75 78 07 bd
       0.012601914 0.038651254 0.05876067 -0.03307386
000070 30 4c a6 bd 0b d4 d2 3d 43 64 13 3d 69 e0 e3 3d
       -0.0812 0.1029435 0.03598429 0.11126787
000080 11 29 de bd 5b 25 bc 3d 1f a0 a9 3d ee e8 03 3e
       -0.108476765 0.091868125 0.08282494 0.12881824
000090 cd ca c6 bc c9 af 9f 3e 63 07 89 bd 9a 9b 8e 3d
       -0.024266625 0.311888 -0.06690862 0.069632724
0000a0 38 57 b3 3d b2 18 e8 3d 8f 18 e3 3d 3e 8b 64 3b
       0.0875687 0.11332835 0.110886686 0.0034873034
0000b0 29 cd d6 3d db 20 c0 3d 55 3f d0 3d b7 21 1a 3d
       0.1048835 0.09381267 0.101683296 0.03762981
0000c0 ad 25 fe 3d 54 59 00 3d 80 74 0b 3e 91 5b ea 3d
       0.1240953 0.03133519 0.1361866 0.11443246
0000d0 19 3d 60 bb 63 f4 b6 3d 47 68 ff 3c 5e b3 86 3d
       -0.0034216105 0.08933332 0.031177653 0.0657718
0000e0 f4 3c f2 bd 8a 04 9f bd 9c a1 58 3d 48 5d a4 3b
       -0.11828032 -0.07764538 0.052888498 0.005016003
0000f0 d8 e6 8e 3b 7f e1 ef 3d 35 24 37 3d e2 10 92 3e
       0.004361015 0.11712932 0.044712264 0.28528506
000100 b0 8d ce 3d 16 1d af 3d fc 68 70 bc 38 d6 90 3d
       0.100856185 0.085504696 -0.014673468 0.07072109
000110 4b 7b 4b bc eb d4 05 be bf 8d b5 bd 0d 6b b7 bc
       -0.012419532 -0.13069503 -0.088649265 -0.022389913
000120 b6 4f 6f 3d c4 3e a4 bc 83 54 30 bd d6 a4 ab 3d
       0.058425628 -0.02004946 -0.043049347 0.08381049
000130 cc dc 9c 3d 5d cd 6d 3d 1b 13 f8 bc 34 30 d1 3b
       0.07659301 0.058057178 -0.030282548 0.00638392
000140 56 46 77 bd 84 c9 97 3c 30 fb 1d bd 2c b7 b4 3c
       -0.060369812 0.018528707 -0.03856963 0.02206
000150 ef 4a 88 3d e8 39 23 bd f9 47 09 3d 2b 0b 05 bc
       0.066549174 -0.039850146 0.033515904 -0.008120338
000160 db 31 17 bc 35 44 36 bd 80 5a 42 3c 2e f9 97 3d
       -0.009228195 -0.04449864 0.011862397 0.07420574
000170 84 64 37 3d 54 99 24 bd 3a 22 ec bd 9f 73 8d 3d
       0.044773594 -0.040185288 -0.11529966 0.069068186
000180 3a fd 5d 3d 3a 26 9a 3c 5f 81 86 bd f1 f0 de 3d
       0.054196574 0.018817056 -0.06567644 0.108858
000190 d6 81 41 3d de 42 2b bc ac 13 db 3b 55 fd 51 3d
       0.04724296 -0.010452954 0.0066856947 0.051266987
0001a0 28 eb c3 3d 01 f5 ec 3c 00 56 6a 3c 8f ca 55 bd
       0.09566337 0.02892542 0.014302731 -0.052195128
0001b0 70 5f d2 bd 6e 68 9c bd 8d c6 da bd b2 d1 17 3d
       -0.102721095 -0.07637106 -0.10682402 0.037065215
0001c0 34 ae a6 3d 96 61 82 3d 47 1f 0e be 62 d7 6e 39
       0.08138695 0.06366269 -0.13879119 0.00022777685
0001d0 62 a5 d4 3d 86 47 88 3c 46 ac 00 be 37 fb 02 3d
       0.10383107 0.016635668 -0.12565717 0.03197786
0001e0 9d 2f bb 3d 20 d5 64 3d 54 d9 82 bd c0 b3 82 3d
       0.09139941 0.055867314 -0.06389108 0.06381941
0001f0 69 bd d1 3b 2a 13 4b 3d fa 3e ad 3d f2 1d 45 3b
       0.0064007533 0.049578823 0.084592775 0.0030077663
000200 04 82 3b 3c 5c e5 2f bd cd e9 e2 bd 12 a0 58 3d
       0.011444572 -0.042943344 -0.1107975 0.05288703
000210 03 e4 a4 bd d8 fe e6 3d 4e 95 19 bd 91 bb 2c bd
       -0.08051302 0.11279076 -0.037495904 -0.042171065
000220 5b 28 a6 bd 8c 0f 1e bc 05 a0 2d bd c8 4b 73 bb
       -0.08113166 -0.009647261 -0.042388935 -0.0037124027
000230 ca 98 9b 3d d8 8c e7 bd f6 f8 04 bd cf bc 3d 3d
       0.075975016 -0.11306161 -0.03246399 0.04632264
000240 72 4e bf 3d db 19 05 3d 24 58 65 bd 03 ab d1 3d
       0.09341134 0.03249536 -0.05599226 0.10237696
000250 54 be 75 3d 49 97 03 bd 42 44 77 3d 51 6f 61 3d
       0.059995964 -0.0321267 0.06036783 0.0550378
000260 ca d4 d6 3c c3 3e 1d 3d c5 0b 19 3d eb 58 14 bd
       0.026224513 0.038389932 0.03736474 -0.03621761
000270 50 74 df 3b 0e b1 4e bc be f3 e2 bd cb 00 0f 3d
       0.0068192855 -0.012615455 -0.110816464 0.034912866
000280 bd 01 81 3d b7 23 f7 3d 4f 56 6d bd 4b 45 09 be
       0.0629916 0.12067359 -0.05794364 -0.1340534
000290 d6 a8 00 be f0 09 cd bd e1 4e a9 3d a1 3d 88 3d
       -0.12564406 -0.10011661 0.08266998 0.0665238
0002a0 35 ab 89 bd ab ba f6 3d 28 da 31 3d 0f 86 b3 bd
       -0.06722108 0.12047323 0.04342094 -0.08765804
0002b0 48 97 3d 3d e4 29 09 3d b0 cb a3 bd 76 5d 91 3c
       0.04628685 0.033487216 -0.07997835 0.017744761
0002c0 82 49 59 3b cc 36 97 3d f5 1a 95 3d 84 72 b6 bd
       0.0033155386 0.073834985 0.07280532 -0.08908561
0002d0 8b 95 8d bd 9d d9 8e bc a9 8f 74 bd 20 cb ba bc
       -0.06913289 -0.01743775 -0.059707318 -0.022801936
0002e0 52 9f 4f 3d 11 52 d5 bd a6 83 9d bd 84 82 09 3d
       0.05068905 -0.104160435 -0.076911256 0.033571735
0002f0 78 9a 96 3d 7f 17 e3 3d c6 2d 64 bd d1 be 1c bd
       0.07353681 0.11088466 -0.055707715 -0.038267914
000300 91 71 d2 bd 13 d1 ef 3d 58 18 4d 3d 3a 19 e4 bd
       -0.10275567 0.117097996 0.050072044 -0.11137624
000310 f4 80 16 bd 0a af 57 3d ca 95 5a 3d 68 c7 bd 3c
       -0.036744073 0.052657165 0.053365506 0.023166373
000320 f9 99 d4 3d ac 2c 4d bd 30 f8 1c 3d bd 38 d3 3c
       0.103809305 -0.05009143 0.038322628 0.02578389
000330 93 e3 d4 bd 03 8f 09 3e 93 5a b2 3d a5 8e 47 3e
       -0.10394969 0.13433461 0.08708682 0.19488008
000340 8a 40 f9 3d d6 50 25 be 76 c5 e2 bd 0e ff 91 3d
       0.12170513 -0.16144118 -0.11072819 0.07128726
000350 33 56 0a be 89 fe 6c 3c d6 1d 03 bb 97 0a fc bd
       -0.13509445 0.014464983 -0.0020006797 -0.12306707
000360 18 c5 fb 3d 51 37 9e bd 8f 64 7c 3e b9 53 01 be
       0.12293452 -0.077253945 0.24647735 -0.12629594
000370 d0 31 c8 3c b5 f1 cc bc af aa d0 bd 7d 8d 9f 3d
       0.024437815 -0.025017599 -0.10188805 0.077906586
000380 02 3e c5 bd 68 f7 67 bb 0c 5d 63 3b 59 52 db 3d
       -0.09630968 -0.0035395268 0.0034692911 0.10709066
000390 cf a1 94 bc a9 ae 85 3e 2e 1f 0d bd 05 85 5e 3d
       -0.018143563 0.26109818 -0.034453563 0.054326076
0003a0 0b 08 8c 3c 83 9c 81 bd 35 ff 1f 3d 49 56 92 3d
       0.017093679 -0.0632868 0.039061744 0.07145364
0003b0 17 2b 14 3e 54 13 a6 bd d4 42 00 be 8e c7 bb bd
       0.14469562 -0.08109155 -0.12525493 -0.091689214
0003c0 ad aa f1 bc 2a f5 27 3d 3c d5 01 3e 2f a9 67 3d
       -0.02950033 0.04100529 0.12678999 0.05655783
0003d0 33 84 3b bd 89 83 8e bd 3d 6d 39 3d a7 f5 32 bc
       -0.045780372 -0.06958682 0.045270193 -0.010922826
0003e0 03 03 bc 3d db c1 d5 3d ab 2c f7 bc 44 ab e4 3d
       0.09180262 0.104373656 -0.030172667 0.11165479
0003f0 5e b6 e1 3a e4 f1 07 3c 5c 99 b1 bd 3e 39 97 3d
       0.0017220487 0.008297417 -0.08671829 0.07383965

fc.weight f4 [1, 64]
000000 70 fc c0 bd a5 61 90 3d 5f 89 3d bd 6f 6f 12 be
       -0.09423149 0.07049874 -0.046273585 -0.14300321
000010 ec 5c 06 be a1 d3 37 3d cc a9 32 3d ac 2f eb bd
       -0.13121384 0.04487956 0.043618962 -0.11483702
000020 fb df 58 3d 37 fe f9 bd 5f 91 a1 3c b2 fa b0 3d
       0.05294798 -0.12206691 0.019722639 0.08641566
000030 ac bb f5 3d 70 a5 54 bd 9c bd d7 bd 25 6f f0 3d
       0.11998686 -0.051915586 -0.10534212 0.11739949
000040 f9 36 d6 bd e0 f4 26 bb ae 4b d5 3c 04 09 e6 bb
       -0.10459704 -0.0025475547 0.026037063 -0.0070201177
000050 eb 01 57 bd 46 b0 39 bb 1f f3 8e bc 72 a8 d9 3d
       -0.052492063 -0.0028333827 -0.017449914 0.106278315
000060 4a 5d 80 3d 1f 8f 06 3e 63 e4 4f be 2e 9c a8 bd
       0.062677935 0.13140534 -0.20301966 -0.08232914
000070 14 4c dc bc 08 82 3f be 59 5e cc bb 33 42 f6 bd
       -0.026891746 -0.18701947 -0.006236833 -0.12024345
000080 1d 24 a5 3c 89 04 db 3d ea 97 1c 3e dd 7f ca bd
       0.020158822 0.106942244 0.15292326 -0.09887669
000090 34 0d b2 bd 3d f9 54 be 2a 0d 9e 3d 06 9c b3 bd
       -0.086939245 -0.20798202 0.077173546 -0.087699935
0000a0 11 5a 54 3d 59 d2 0c 3e d4 e2 04 be 79 74 99 3d
       0.051843707 0.13752116 -0.12977153 0.074929185
0000b0 4e 14 da bd 21 98 ff bc 82 9b a4 3d 86 de 92 3d
       -0.10648404 -0.03120047 0.08037473 0.07171349
0000c0 5b 33 55 bd a5 1a 93 bc 4b c1 64 bd 5f 32 34 3c
       -0.05205093 -0.017957041 -0.0558484 0.0109983375
0000d0 78 96 d3 bd e0 73 ab bb ce f1 a8 3d 2a 52 15 be
       -0.10331434 -0.0052323192 0.082492456 -0.14582124
0000e0 0c 6b 25 3d e9 2e b5 3d 4f 61 dc bd 3b 60 05 3e
       0.04038529 0.08846838 -0.10760748 0.1302499
0000f0 4a 0c 98 bd 20 56 a3 3d 8a d2 f0 bd df e6 93 bd
       -0.07424219 0.079754114 -0.11758907 -0.072217695
